Phase2/model.ckpt (torch, 272221 bytes, 18 tensors)

layer1.weight f4 [128, 39]
000000 10 30 b7 3e 38 a7 cc be 1a f1 b5 be 84 76 85 3e
       0.35778856 -0.39971328 -0.35535508 0.26066983
000010 fa cb d5 be 63 51 63 be 05 60 f8 bd d3 e5 0c be
       -0.41757184 -0.22199015 -0.12127689 -0.13759546
000020 5c 47 5a 3c f5 b5 3f 3d 46 04 56 bb 66 cb f7 bd
       0.013322677 0.046804387 -0.0032656356 -0.12099342
000030 3f 7c 6d be b2 5f f0 be 20 37 4b 3e 0b fa 3c bd
       -0.23191927 -0.4694801 0.19845247 -0.046136897
000040 cd 21 96 be 26 70 a3 3e a2 34 27 be 76 0c ee bc
       -0.29322663 0.319215 -0.16328672 -0.029058676
000050 a4 24 da 3e 78 8c 10 be fc 16 1c 3e 28 08 dc 3e
       0.4260608 -0.14116085 0.15243143 0.42974973
000060 a9 2c 39 be f1 aa 34 be 5a 04 94 3e e0 29 3e 3e
       -0.18083443 -0.17643334 0.2890957 0.18570662
000070 ce c4 1b be 79 3f d4 bd b5 6e 4d 3d b0 b9 af 3d
       -0.15211794 -0.10363669 0.050154407 0.08580339
000080 0f 88 b2 bd 78 13 c2 3c f3 d7 52 bd 8d 66 1f 3d
       -0.08717357 0.023690924 -0.051475476 0.03891616
000090 b5 94 77 3d 83 fb 54 3d 5f 06 56 3d c9 9e 8e be
       0.060444552 0.051997673 0.05225217 -0.27855518
0000a0 7a 02 cd 3d 53 c5 b5 bb cd ad 03 be 77 4e 34 3e
       0.10010238 -0.0055472045 -0.12859268 0.17608057
0000b0 d6 11 00 be 3c 82 00 3d de 53 44 be be 68 76 bd
       -0.12506804 0.0313742 -0.19172618 -0.060158484
0000c0 66 b9 0f 3b ab 56 05 3e 22 e9 f3 bd dd 20 e3 bd
       0.0021930574 0.13021342 -0.11909701 -0.110902525
0000d0 52 23 0d 3e 57 6e bf 3d b0 5e af 3c f4 7d dd 3d
       0.13783005 0.093472175 0.021407455 0.10815039
0000e0 07 9a 47 3d 9e 43 c9 3d 3b 1b 44 3e cc b1 77 3c
       0.048730876 0.0982735 0.19151013 0.015118074
0000f0 4f e2 16 bd 5d fc d0 3c b6 f7 89 bd ac dc b0 3c
       -0.03683692 0.025510961 -0.067367 0.0215896
000100 3b 4e b4 3e 19 2b b2 bd 6e da e7 3d 03 ae 2f 3e
       0.35215935 -0.086996265 0.11320959 0.17156224
000110 64 9f a6 3d 8a d2 5f be 62 a8 7a be bb 38 d7 bd
       0.0813587 -0.21857658 -0.24478295 -0.10508867
000120 25 92 51 bd 6a 5b d1 bd 5f 59 bb 3c 0b f7 06 3e
       -0.051164765 -0.10222514 0.022869764 0.13180177
000130 e6 9d ce bd 3a 55 50 bd 4d 51 e2 bd 95 b7 50 3d
       -0.100887105 -0.05086253 -0.11050663 0.050956327
000140 0a 63 d3 be 4c a3 69 bd d7 af ca bc 34 25 b6 be
       -0.41286498 -0.057040498 -0.02474205 -0.3557526
000150 a7 d2 ba bd 21 03 01 be 5f 4c a3 bc e7 7e 8f 3d
       -0.0912221 -0.1259885 -0.019933878 0.070066266
000160 70 70 fe be 1d e1 ee be 97 dd e8 be 25 42 bb bd
       -0.49695158 -0.46656123 -0.4548156 -0.091434754
000170 b4 5f 93 3d 21 84 51 3c 16 27 0e 3e c8 73 87 be
       0.07195988 0.01278785 0.13882098 -0.26455522
000180 99 f2 12 bf 55 2a 1c bd b8 a8 74 be 62 15 9a bd
       -0.57401425 -0.03812631 -0.23892486 -0.0752361
000190 26 79 67 3d 93 e0 37 3e 4f f5 b6 3e c7 a2 14 3c
       0.05651202 0.17956762 0.3573403 0.009072012
0001a0 dc bd f5 be 2a 86 8e 3e 22 7d 52 bc ca 3d e9 3c
       -0.47996414 0.27836734 -0.012847217 0.028471846
0001b0 27 f6 be be df 9a 16 3d 1e 3f 1b 3e b7 9d eb 3d
       -0.37297174 0.03676879 0.15160796 0.11504691
0001c0 9b c6 00 be 54 49 6f 3d cc 7f ad 3e 30 81 1f bd
       -0.12575762 0.05841954 0.33886564 -0.038941562
0001d0 3f 3f 53 3e de 43 b8 ba a8 d1 fb bd b5 46 41 be
       0.20629595 -0.0014058312 -0.12295848 -0.18874629
0001e0 03 e3 70 bb 84 62 25 be e9 75 92 be d0 1e fb bd
       -0.0036756403 -0.16150862 -0.28605583 -0.122617364
0001f0 e3 f7 ee 3d 0c a4 09 3c 16 84 0a be 09 ee cd be
       0.116683744 0.008400928 -0.1352695 -0.4022067
000200 4d 9c 05 bf e8 8e d0 bc b3 7e eb be ce c1 ef 3d
       -0.5219162 -0.025458768 -0.459951 0.11706887
000210 90 75 27 bb 68 5c 1d be f9 eb b7 be ff 5a f7 be
       -0.002555225 -0.15367281 -0.3592222 -0.48311612
000220 06 4e f7 bb 72 61 b4 bd a1 67 88 3d 46 26 7f bb
       -0.007547143 -0.08807649 0.06660391 -0.0038932725
000230 d6 90 21 bd 04 ad 8f bd f7 cc 5b 3d 15 3d f3 be
       -0.039444767 -0.07015422 0.053662267 -0.4750754
000240 a2 3a e3 3d 09 6c 7e bd 5b d6 b8 3e 23 97 36 3e
       0.11095168 -0.06211475 0.3610104 0.17831092
000250 76 49 1d be e5 04 83 3e d2 01 db 3d e5 ab 84 bd
       -0.15360054 0.25589672 0.106937066 -0.06478099
000260 a1 f3 ab bd db 7d 9c bd 1e 06 04 be b1 87 3a bc
       -0.08396078 -0.076411925 -0.12892959 -0.01138489
000270 af ea 0c 3e 8e 24 9e bc 95 69 a4 3e 59 f4 70 3e
       0.137614 -0.01930454 0.32111803 0.23530711
000280 d5 dc 38 be e7 85 76 3e 2b ef b3 3b 6a db 16 be
       -0.1805299 0.24074517 0.0054911575 -0.14732137
000290 d1 d0 29 be c9 84 84 3d e2 d7 4f 3e c0 b7 60 3e
       -0.16583563 0.06470639 0.20297197 0.21945095
0002a0 d3 f4 d8 3d a6 88 69 be d4 a7 db be b7 12 4d 3e
       0.105935715 -0.22806033 -0.4290148 0.2002667
0002b0 2d da 09 3f db a9 8a be 5a f1 50 be fc c0 5a 3e
       0.53848535 -0.27082714 -0.20404568 0.2136268
0002c0 0c 73 1c be a1 37 89 be 88 33 23 3e 02 42 9f 3e
       -0.15278262 -0.26800254 0.15937626 0.31105047
0002d0 36 1d 21 3e 11 4b 8e 3e 3b 12 c9 3c 9e 83 2c 3e
       0.157338 0.27791646 0.024544826 0.16847083
0002e0 52 a6 4d 3d ba dd 14 bd 19 06 82 be cd 37 96 bd
       0.050207444 -0.036344267 -0.25395277 -0.07334862
0002f0 d3 53 40 3e 95 45 85 3d ce 4a 56 bd 33 bf c8 3d
       0.18781976 0.06507412 -0.052317433 0.09802093
000300 73 82 d8 bc b3 af eb 3d 39 06 97 3a cc 59 ab 3e
       -0.02642939 0.11508121 0.001152224 0.33466947
000310 a3 38 c0 3e d6 15 ed bd 20 d2 a6 3c 74 e0 92 3e
       0.3754321 -0.115764305 0.020363867 0.2868687
000320 b4 66 4e be 76 41 e9 3d 72 8a 3d be 8e 20 8b bd
       -0.20156366 0.11389439 -0.18509844 -0.06793319
000330 9a a6 34 be 02 d9 55 be 61 79 dc 3c 9a 56 0c 3e
       -0.17641678 -0.20883563 0.026913347 0.13704911
000340 6b 84 c2 be 31 69 8e 3d 98 ff 7d bd e7 f5 23 3e
       -0.37991652 0.069536574 -0.06201133 0.16011773
000350 70 5f a9 bd 61 db 80 3e f9 f7 ca 3e 01 f8 31 3c
       -0.082701564 0.25167373 0.39642313 0.010862351
000360 c0 21 29 bd 27 81 38 3e 4f 03 d0 bd 49 0f bc be
       -0.041291952 0.18018018 -0.10156881 -0.36730412
000370 87 8c 58 3e 5b 72 8e 3e e5 1e a4 bc e2 91 c6 3d
       0.21147357 0.2782162 -0.020034263 0.09695794
000380 c6 49 0b bd b7 ef 88 3d 0c 77 e1 bd 2e a5 84 3a
       -0.034005903 0.06686347 -0.110090345 0.0010120028
000390 72 c0 24 3d c4 16 c2 3b ad 9f 05 bc 9b bc ac bc
       0.040222593 0.005923124 -0.008155745 -0.021086028
0003a0 20 08 f6 3c dd 2e ab 3c a7 cf 18 be 9e ad cb bd
       0.030033171 0.02089637 -0.14922963 -0.09945224
0003b0 4a 23 2c bd 63 73 32 be ba d3 c7 3c 89 b2 b0 bd
       -0.04202584 -0.17426829 0.024392951 -0.08627803
0003c0 fc 05 e1 bd 2e 03 94 be 5c ba ef 3b 53 02 31 be
       -0.109874696 -0.28908676 0.007315917 -0.17286043
0003d0 af 47 2e bd 49 4d 1a 3d e2 f4 46 be cd a8 5f bd
       -0.04254883 0.03767136 -0.19429353 -0.05460434
0003e0 ae ca e9 bd c6 7e 24 3e 07 93 e0 bd c9 d0 1d 3e
       -0.11415611 0.16063985 -0.10965543 0.15411676
0003f0 8a bb eb bd c9 27 c8 be e0 0b 92 be e7 ee d1 bd
       -0.115103796 -0.39092854 -0.28524685 -0.10250645

layer1.bias f4 [128]
000000 8d 2a 7a 3e 96 f7 c1 bd 22 7a cf bc 6d 8d b8 bd
       0.24430294 -0.094710514 -0.025326792 -0.0901135
000010 03 03 bd 3d ad d3 a0 bd 36 f3 43 bd c1 9d 02 3e
       0.0922909 -0.07852874 -0.047839366 0.12755491
000020 d6 27 ca 3c 5f 24 ce 3d d5 1d cc bd 58 0a af bd
       0.024677198 0.10065531 -0.099666275 -0.08546895
000030 cb 7f 32 be 33 d4 cf 3d 18 bb 20 3e 1e 5d 51 bd
       -0.17431562 0.10147896 0.1569637 -0.051114194
000040 cb a4 1e be 91 75 a0 bd 38 03 3c 3e 12 a0 ce bd
       -0.15492551 -0.07834924 0.18360603 -0.10089125
000050 2c 6e 08 3d de 71 68 be a0 69 f4 bd a2 2e c3 3d
       0.033308193 -0.22699687 -0.11934209 0.09530379
000060 b4 42 d0 3d d6 05 ec 3d 3c d1 2a be d5 e8 9a bc
       0.101689726 0.115245506 -0.16681379 -0.018909851
000070 d5 41 ab 3d 2e 07 e1 bd e5 27 8d bd 5b ea 7c be
       0.08362166 -0.109876975 -0.06892375 -0.24698775
000080 d2 7a 93 bd 18 bc ea bd 00 0d db bd 66 86 d1 3d
       -0.072011605 -0.11461657 -0.10695839 0.102307126
000090 11 0d ad 3d 28 a3 8b be a5 37 07 bd 9e eb d9 bd
       0.08449758 -0.27272916 -0.03301205 -0.106406435
0000a0 9b 4e 2b be 27 88 5b 3d ef c8 66 be 67 13 ed 3d
       -0.16729204 0.053596642 -0.22537588 0.11575966
0000b0 56 03 b9 3d 22 34 db 3d 25 62 4e be 6b 37 bb bc
       0.090338394 0.10703303 -0.20154627 -0.022853574
0000c0 41 54 1d be 82 b2 cf 3c e7 8b 7c be 42 f6 a0 bd
       -0.15364172 0.025353674 -0.24662744 -0.0785947
0000d0 26 96 8f bd 60 bb ee bd 2a 41 87 3d 6e b2 81 bd
       -0.070110604 -0.11656833 0.06604226 -0.06332861
0000e0 d1 bf 20 3d 36 20 b1 bd f6 19 3d 3d db ff 55 bc
       0.03924543 -0.08648722 0.046167336 -0.013061489
0000f0 96 bd fb bd c4 71 67 bd 25 ce 14 be 45 69 06 3e
       -0.1229202 -0.05650498 -0.14531763 0.13126095
000100 92 c1 91 be b5 12 57 be ea 9e b0 bd e7 52 e6 3d
       -0.28467995 -0.2100323 -0.086240605 0.11246281
000110 14 47 41 bd de e5 ef 3d 91 8c 6e be 1b f5 4a bd
       -0.047186926 0.117137656 -0.2329581 -0.049550157
000120 ad 85 1e 3d 9e 0c 18 bd 62 a5 82 3a f1 6e 27 3e
       0.038701702 -0.037121408 0.0009967501 0.16350915
000130 8b c6 03 3e 25 46 b7 3d 6f c3 52 bd 60 2b 16 3e
       0.12868707 0.08948926 -0.05145591 0.14664984
000140 cd 69 40 3d 5a fc 03 3e 78 97 ef 3d 66 d7 90 bd
       0.0469759 0.12889233 0.11698812 -0.07072334
000150 13 14 11 be cf 50 bc 3d 8c 83 ab bd 2a 60 0a be
       -0.14167814 0.091951005 -0.083747 -0.13513246
000160 bf b1 0d be 58 cb dc bc ed de fd 3c 7f 15 60 be
       -0.13837336 -0.02695243 0.030990088 -0.218832
000170 6f 16 42 3d 18 30 59 3d 74 37 1f bc 14 b5 ca 3d
       0.047384676 0.05302438 -0.009717811 0.09897819
000180 72 cf 0f 3d f5 ef fc bd 49 21 1d 3e bf 33 84 bd
       0.035109945 -0.12350456 0.15344729 -0.06455182
000190 1d 1f 34 be f9 7c 9f bd 76 94 47 bc 46 83 2d be
       -0.17589994 -0.077875085 -0.012181392 -0.16944608
0001a0 2a cd 07 3d 7d 36 06 be b8 0e 96 bd 77 e0 f7 3c
       0.033154644 -0.13106723 -0.07327026 0.0302584
0001b0 32 9f 70 bc 34 8d 1b 3c 82 a2 76 bd 8e 11 11 3e
       -0.014686393 0.009494115 -0.060213573 0.14166853
0001c0 a0 e7 d5 bd 01 52 c5 3d 33 d2 b3 bd f2 1b 5c bb
       -0.104445696 0.09634782 -0.08780327 -0.0033585993
0001d0 ee e0 c0 bb 78 74 bc ba 4a d3 75 3d 54 c3 de bc
       -0.0058861887 -0.0014377972 0.060015954 -0.02719275
0001e0 17 e7 cc bd 02 e0 18 3e b4 74 49 ba fb e6 a5 3d
       -0.100050144 0.14929202 -0.00076849316 0.08100697
0001f0 d6 3e d6 3d 4f 5d 33 be 92 99 6d bd de 92 35 3e
       0.10461204 -0.17516063 -0.058007784 0.17731807

layer2.weight f4 [128, 128]
000000 56 07 28 be 2f ca 50 3d 5c 6f 89 3e 10 1c cb 3d
       -0.16409048 0.050974067 0.26842773 0.09917462
000010 56 eb 8d bd bb 45 a2 3c 48 fa 76 3e 46 56 e6 bd
       -0.069296524 0.01980864 0.24118912 -0.11246924
000020 13 94 73 3d 58 82 80 3c bf 13 21 3d 44 98 46 3d
       0.059467386 0.015687153 0.039325472 0.048485056
000030 63 2a c4 bd 47 34 87 3d 14 6e 18 bd 96 bf 04 3e
       -0.09578397 0.06601768 -0.037214354 0.12963709
000040 de f5 a0 3e 26 7e a8 3b 35 a6 c4 bd 87 da a2 bd
       0.31437582 0.005141991 -0.09602014 -0.07951837
000050 2a 52 22 bd ab d4 cd 3d 61 c9 dd 3d ef 47 ff bc
       -0.03962914 0.10050329 0.108294256 -0.03116223
000060 d9 76 09 3e a5 a4 d2 3d b8 b0 85 bd 29 66 08 3d
       0.13424243 0.1028531 -0.06527847 0.033300553
000070 f8 31 a6 3d 1b f6 09 3e a2 75 f6 3d 89 2e 6b 3d
       0.081149995 0.13472788 0.120341554 0.057417426
000080 40 1f 3e 3a 58 c2 3a 3d ea 9f 9d 3c 2b 51 b3 3d
       0.00072525814 0.045595497 0.019241292 0.08755716
000090 a3 29 b5 3d bb 0c 12 3e e1 b8 02 3e b0 6b 21 3e
       0.08845832 0.14262669 0.12765838 0.15763736
0000a0 5d 42 49 3b 6b ce 3f 3e 18 2e 5b 3d b3 6e 4c 3d
       0.0030709722 0.18731086 0.053510755 0.04991026
0000b0 80 7f b6 3c f1 91 1a 3d 33 80 a9 3d 77 8a 01 3e
       0.022277594 0.037736837 0.08276405 0.12650476
0000c0 78 37 69 3d b2 f8 af bd a8 12 27 3e d8 97 21 bd
       0.056937665 -0.08592357 0.1631571 -0.03945145
0000d0 6a ef a2 3d 2b 0d 0b bd 08 bc 16 3e c5 6f 98 bd
       0.07955821 -0.033948105 0.14720166 -0.07443193
0000e0 70 f7 5e bd 76 8c 56 bc b7 8e f0 bc 06 d3 81 bb
       -0.054435194 -0.013095012 -0.029364927 -0.0039619235
0000f0 ce 67 bb 3d 73 34 25 3e 89 c1 2a 3e ba 40 29 3d
       0.091506585 0.16133289 0.1667539 0.041321494
000100 26 1c 13 3e b7 9f 82 3d 1b af d6 3d 36 d1 27 bd
       0.14366207 0.063781194 0.104826175 -0.040971003
000110 48 10 c7 bb cd dc b2 3d 22 5d 62 3d 1f 74 ab bc
       -0.006074939 0.08733521 0.0552646 -0.020929394
000120 62 1f 6d 3d c5 8d 52 3d 69 86 b7 3d f2 ff 57 3e
       0.057891257 0.051404733 0.089611836 0.21093729
000130 c4 ac 04 bd ff 80 99 3c e9 70 08 3e e5 15 95 bd
       -0.032391325 0.018738268 0.13324322 -0.07279567
000140 1d 91 f7 3d ea b0 54 bc 0f f8 aa 3b d5 53 36 3c
       0.12088225 -0.012981633 0.005217559 0.011128386
000150 b4 f3 bd 3d 2c cb 32 3e 93 01 a8 3d 7e 76 3f 3d
       0.09274998 0.17460316 0.08203425 0.046743862
000160 e7 bc 2c 3e de b9 eb 3c da ae 1c be 0c 85 3a 3e
       0.16868936 0.028775152 -0.15301076 0.18214816
000170 3a 96 27 3d 64 ff f2 3c 97 9d 2a 3e e9 63 d8 bd
       0.04091475 0.029662795 0.16661678 -0.10565931
000180 a9 da 45 3e 32 14 e3 3b 05 e4 ca bd 54 a9 4a bc
       0.19321693 0.0069298977 -0.099067725 -0.0123694725
000190 60 97 75 3d 22 09 c3 3d f0 90 1a be f4 8c 08 3e
       0.059958816 0.09523226 -0.15094352 0.1333502
0001a0 86 0a b3 3c 01 b7 bf bc 96 84 05 39 fd b7 ba bc
       0.021855604 -0.023402693 0.0001273326 -0.02279281
0001b0 b8 38 ce 3c f3 b0 46 3d 7c 79 36 3d ac f6 51 3d
       0.02517353 0.048508596 0.04454945 0.051260635
0001c0 f6 ba 4c 3e a5 e6 cf bd 13 fb 30 bd 3c c9 5a 3d
       0.19993195 -0.10151414 -0.043208193 0.05341457
0001d0 da ea a4 3c f2 8a 34 3d 13 6f 0c bd c7 06 97 3d
       0.020131517 0.04407782 -0.034285616 0.073743396
0001e0 de 32 31 bd 08 e0 03 be dc 0b 7c 3d 35 87 6b 3d
       -0.0432614 -0.1287843 0.061534747 0.05750199
0001f0 2d 2a ae 3d 5f 2d cc 3c 88 84 b8 3b 80 f4 d4 3c
       0.08504138 0.024923978 0.0056310333 0.025995493
000200 b0 b9 a5 3e fb b0 d6 bd a3 ec 50 be a5 6c 84 be
       0.3236823 -0.10482975 -0.2040277 -0.2586414
000210 89 fd 97 3d db 05 c8 3d c1 60 6c 3c c4 84 23 3e
       0.07421405 0.09766742 0.014427365 0.15968615
000220 8c 67 13 bc ee 5e 47 3e b8 13 30 3d 81 59 2a bc
       -0.0089968555 0.19469807 0.042987555 -0.010397316
000230 54 5c 00 3e 07 4d f2 3c f7 2a d7 3d 25 0d 97 3c
       0.1253522 0.029577745 0.10506242 0.018438885
000240 8e 06 a7 bd 97 08 83 3d c0 a1 09 3e 5a fd e0 3c
       -0.08155547 0.06398123 0.13440609 0.027464557
000250 2e 38 46 3d f0 eb b9 bd e4 2b 2b 3e df c8 8b 3e
       0.04839342 -0.09078205 0.16715962 0.2730169
000260 df 53 0c bd 31 be f2 3d 95 99 42 3e 9c 97 1d 3e
       -0.034259673 0.118526824 0.190039 0.15389866
000270 35 9e 42 bc 86 57 e7 bd b2 7e 60 be 03 72 fc 3c
       -0.01187854 -0.11295991 -0.2192333 0.030816084
000280 8b 42 36 bc 16 6d 82 3d d6 d2 88 3e 07 5e 0d bd
       -0.0111242635 0.06368463 0.26723355 -0.0345135
000290 91 38 4d bd 26 0c b4 bd fc f5 09 3c e5 5f 8f 3d
       -0.050102774 -0.0879138 0.008420464 0.07000712
0002a0 7a 78 73 3e 46 4e ac 3c 66 36 3a 3d 62 cd 1b 3e
       0.23776427 0.021033417 0.045462035 0.15215066
0002b0 03 e3 39 3e 32 ad 0e 3d de e4 ab 3e b1 44 53 3e
       0.18153004 0.03483314 0.3357305 0.20631672
0002c0 70 a1 d6 bd 6e ee 3d 3e 80 44 f9 ba 20 7e 50 3d
       -0.104800105 0.18547985 -0.0019017607 0.050901532
0002d0 d8 08 01 be 3c e2 61 3e 86 bc 30 3d 52 69 1c 3e
       -0.1260103 0.22058958 0.04314854 0.15274552
0002e0 5c ef ed 3d 4f c9 01 3e d3 b9 1a 3e ee e7 85 3e
       0.1161792 0.1267445 0.15109949 0.2615351
0002f0 5e 2a 1e bc 0d be 07 3e 03 d0 c2 bc 96 1a 5f 3e
       -0.009653656 0.13256092 -0.023780828 0.21787485
000300 e5 55 bf bc cd b6 cb 3e be d3 7d 3e c4 a6 5f 3e
       -0.023356387 0.39787903 0.24787804 0.2184096
000310 a5 5d 26 3c bb 95 7d 3d cf 6f 38 3e 4a 8f 27 3e
       0.0101541625 0.061910372 0.18011402 0.16363254
000320 0a 31 e7 3d 00 ab 9c 3e 3a 09 48 3d d9 79 a0 bd
       0.1128865 0.30599213 0.048836924 -0.078357406
000330 05 ad 39 3e 95 02 23 3d b6 6f 1d 3e 7e 0c 8b 3e
       0.18132408 0.039797384 0.15374646 0.27157968
000340 7a fd 23 3c ba fe 5a 3e d6 ec ca 3d c9 0e aa 3d
       0.010009164 0.21386233 0.09908454 0.08303601
000350 0f e0 47 3e 57 8c 28 3d dd 28 8f 3c cb 1a c1 3d
       0.19519065 0.041149464 0.01747554 0.094289385
000360 8a ac 39 3c c2 e6 06 3e 4f 1f e0 3d fa 7e 0f bd
       0.01133264 0.13173965 0.10943472 -0.035033204
000370 b8 51 a1 3d dc e1 11 be 63 0e ce 3d 03 56 33 3e
       0.07876915 -0.14246315 0.10061338 0.1751328
000380 f0 38 8c bd 60 ce 82 3d 17 2f 6e 3e 03 fe 3e 3d
       -0.068467975 0.06387019 0.23260151 0.046628963
000390 c1 49 04 3d c8 15 39 3e 4d 60 85 3e 6d 7a 09 3d
       0.0322969 0.18074715 0.26050034 0.03356402
0003a0 79 f9 13 3e aa 32 a1 3d fa 61 57 3d c1 fe 83 3e
       0.14450635 0.078709915 0.052583672 0.257803
0003b0 72 c8 87 be a7 7d 88 3c a8 3e 0c 3d f9 a9 09 3e
       -0.26520115 0.016661478 0.03423944 0.13443746
0003c0 16 8e 08 be 02 73 97 3e 4f 7f 33 3e dd bc 8d 3e
       -0.13335451 0.29579931 0.17529033 0.27683154
0003d0 6f b4 3f 3d 37 c1 77 3e 20 3d 73 3e 09 82 df 3d
       0.046802934 0.241948 0.23753786 0.10913474
0003e0 ee 48 47 3e 4b 5c 58 3e 78 1c 2e 3d 3b 4f 3f 3e
       0.19461414 0.21128957 0.04250762 0.18682568
0003f0 4e 3d 58 bd 4c c8 29 bd a0 a7 39 3d a2 8a 4f 3e
       -0.05279284 -0.041450784 0.045325875 0.20267728

layer2.bias f4 [128]
000000 83 3f fd bc 3c 98 c1 3c 80 da 22 3d 66 f6 9f 3c
       -0.030914074 0.023632161 0.03975916 0.019526672
000010 67 ad 83 bd 20 b5 fe bc 8a 40 68 3e d2 d8 37 bd
       -0.06429558 -0.031092227 0.2268087 -0.04488451
000020 ed b4 8b bd e7 bc c4 3d 0b 57 dc 3c 40 17 54 bc
       -0.06821618 0.09606343 0.026896974 -0.012944996
000030 7c f6 8b 3b db 18 6d bd 83 7d f1 bc 7e 58 8e 3e
       0.0042713266 -0.057885032 -0.029478794 0.2780189
000040 72 28 cf bc be 4b 28 3e 40 22 bc 3b eb cb 5f bc
       -0.02528784 0.16435143 0.0057413876 -0.013659458
000050 2b 30 78 bd ae 21 1f 3d 98 0d d5 bd a6 5d 4d 3d
       -0.06059281 0.03885048 -0.104029834 0.05013814
000060 1f b3 8a bd 1a 8c 9a bd a3 3c 62 bd 85 93 fb 3d
       -0.06772446 -0.075462535 -0.05523361 0.122839965
000070 76 21 1f bd 36 51 01 be 22 4b 8c 3d c9 43 d6 bd
       -0.03885027 -0.12628636 0.06850268 -0.10462148
000080 c3 eb d0 bd 56 79 c0 bc cd 84 69 bb 47 82 5c 3e
       -0.10201218 -0.023495357 -0.0035632134 0.21534072
000090 f1 88 e3 3d da c3 4c bb 8d e2 33 bd 6c a9 74 b9
       0.11110104 -0.0031244666 -0.043917228 -0.00023332768
0000a0 ec 3c 8c bd 2b b5 9b 3c 0e a3 03 3d 75 16 d9 bd
       -0.068475574 0.019007286 0.032137923 -0.105999865
0000b0 4b c5 56 3d 7c dc de bd 10 9e 7f bc 57 fe b7 bd
       0.052434247 -0.10881898 -0.01560165 -0.08984058
0000c0 b7 fd b1 3c ba 4f ee bd f2 2a 29 3d 8f b1 8c bd
       0.021727426 -0.116363004 0.04130072 -0.06869804
0000d0 ec 02 80 bd d8 71 25 3e 16 d3 7e 3c 57 42 61 bc
       -0.06250557 0.16156709 0.0155532565 -0.013748727
0000e0 6e b1 5f bd 2e 99 ce bd be 17 7e bd 23 88 1c 3e
       -0.05461257 -0.100878105 -0.06203436 0.15286307
0000f0 86 3e 8c bd 7e e0 a5 3c 66 22 9c 3c 5e b6 4c ba
       -0.06847863 0.020248648 0.019059371 -0.0007809157
000100 cc 34 6b bd c8 ed 4b 3e 87 fd dc 3d 7e 84 28 3d
       -0.057423398 0.19914925 0.10790544 0.04114198
000110 22 e4 a9 3c 87 25 3c 3c 28 c9 70 3d 77 b4 a2 bd
       0.020738665 0.011483557 0.058785588 -0.07944577
000120 ff 4a be 3c a3 f5 8c bd 65 d8 87 3d 8d 9e 34 bd
       0.02322912 -0.06882789 0.06633071 -0.04409652
000130 60 72 48 3d 8f d2 04 3d 56 d6 1a bc eb 62 c1 bd
       0.0489372 0.032427367 -0.009450516 -0.09442695
000140 ea b0 c6 bc 1d 3b 80 bc c2 7f 03 3d 51 ed 6b bc
       -0.024254281 -0.015653187 0.03210426 -0.014399842
000150 13 73 be 3d 7f bf fb 3d 49 1b 7d bd 93 85 da bd
       0.092992924 0.12292384 -0.0617936 -0.106700085
000160 3e 3d 6d 3d 55 46 b0 bd 2e 70 30 3d 38 40 ff 3d
       0.057919733 -0.08607165 0.043075733 0.12463421
000170 ea 32 f0 bc ad d7 02 3d 55 30 b8 3c 23 69 ae bd
       -0.029321153 0.031943966 0.022483984 -0.08516147
000180 a1 50 03 3d 5d 4f c4 bd 1a bf bb 3c b4 3b eb bd
       0.032059316 -0.0958545 0.022918273 -0.11485997
000190 9b 6a a5 bd a7 39 8c 3b e0 95 41 bd 4e 7f 0a bc
       -0.08076974 0.0042793336 -0.047262073 -0.008453203
0001a0 03 7a 17 3d 2e a2 d9 bc 9c 53 24 3d 9a a6 de 3c
       0.036981594 -0.026566591 0.0401188 0.027179051
0001b0 8a 33 93 ba a0 d8 ee 3b fc d5 dc 3b cc 3e ad bd
       -0.001123057 0.0072890073 0.006739376 -0.08459243
0001c0 e8 3c ad 3d 5b bc 38 3e 8e b7 99 3c ab 3e be bd
       0.084588826 0.18040602 0.018764284 -0.09289297
0001d0 18 9b aa 3c f1 8c bd bd a6 6d f9 3a f9 17 10 bd
       0.020825908 -0.09255398 0.001902987 -0.035179112
0001e0 04 09 80 bd 6b 9e a3 bc 63 e8 5e 3e d6 4b 20 3d
       -0.062517196 -0.019973 0.21768336 0.039134823
0001f0 7c f2 6e bd bc 23 dc 3d 23 c6 d6 bc 85 11 a6 bd
       -0.05833672 0.10749003 -0.026217526 -0.0810881

layer3.weight f4 [4, 128]
000000 ef 15 ea 3c e6 61 3b be f9 dc 60 be a6 79 b9 bd
       0.028574912 -0.18299064 -0.21959294 -0.09056406
000010 1b 83 3a bd 4d dd 7b bd a8 17 d8 3d 5c 8d 2b bc
       -0.04553519 -0.061490346 0.10551387 -0.010470714
000020 db 46 ba bd 4e c1 34 3b f5 17 80 3b 99 79 24 3b
       -0.09095546 0.002758104 0.003909106 0.0025096892
000030 b1 8c 2e bd 90 fe b1 bc 20 e6 9f bd dd a9 08 3f
       -0.042614643 -0.02172783 -0.07807565 0.5338419
000040 e6 22 7e 3c 6e 05 7d 3d ee 4c 76 3c c7 26 c8 bd
       0.01551125 0.061772756 0.01503299 -0.09773021
000050 a1 e4 5d bd 7d 05 f9 bd 4a b6 8c bd 8c eb 90 3d
       -0.054173116 -0.1215925 -0.068707064 0.07076177
000060 fb 4b 57 bd a9 90 e8 3b 1a 19 ad bd b8 9d af bb
       -0.052562695 0.007097323 -0.08452053 -0.0053593777
000070 cc bc 95 bd e2 6d d7 3c 82 57 c1 bd 81 50 97 bd
       -0.07311401 0.026297513 -0.09440519 -0.07388402
000080 5d 6e b6 3b 73 75 c6 bc f5 22 98 39 ca 81 86 3d
       0.0055673555 -0.024225926 0.00029017744 0.06567724
000090 2e c8 bf 3d 45 52 9e 3d bb 7e 98 bd 72 65 4c 3d
       0.09364353 0.077305354 -0.07446047 0.049901433
0000a0 8b 93 36 bb 90 1b d4 bd b8 27 18 bd 53 3d b2 bd
       -0.0027858939 -0.1035682 -0.037147254 -0.08703103
0000b0 a8 ba 00 ba 2a bb b8 bd c4 e6 03 be f3 e0 35 3d
       -0.00049106264 -0.09020074 -0.12880999 0.04440398
0000c0 d3 4e d5 3e 86 da 3d bd be 89 b0 bd 52 06 e2 bd
       0.416617 -0.04635098 -0.08620022 -0.11036362
0000d0 0f 4a 9f be f3 81 1d 3e 68 b4 9f bd d8 f0 60 3b
       -0.3111119 0.15381603 -0.07798082 0.0034323242
0000e0 84 04 41 3c b6 c2 d0 bc da 5d f5 3c a9 06 6b 3d
       0.011780862 -0.02548347 0.029951978 0.0573794
0000f0 be 6d 73 bd ea 1a 6c bd af f8 84 bd e7 b7 9a bd
       -0.05943083 -0.057642855 -0.06492745 -0.07554608
000100 4c ed 6c 3c 21 91 48 3e 00 d5 c8 3d 9d 90 b4 bd
       0.014460873 0.19586612 0.098062515 -0.08816645
000110 63 15 a8 bc 9c f5 c9 bd 8e 7e 00 3d 1a 04 99 be
       -0.02051801 -0.098612994 0.031370692 -0.29885942
000120 8c 1d c6 3c 48 0a ae bc 72 f4 1d 3e 85 30 b4 bd
       0.02418401 -0.021245137 0.1542528 -0.08798317
000130 a3 d4 aa bc c2 34 87 be 22 e2 99 3d 29 73 f3 bc
       -0.020853346 -0.2640744 0.075138345 -0.029717999
000140 72 48 fa bc 5a 96 da bd c9 84 1e bc 22 dc da bd
       -0.030552123 -0.106732085 -0.009675213 -0.10686518
000150 1f 1e ea 3c cd 94 05 bb 26 e4 82 bd 25 74 69 bd
       0.028578816 -0.0020382882 -0.06391172 -0.05699553
000160 3b 11 05 be 8b 96 f7 bd 05 92 50 3c 98 f3 01 3e
       -0.12994854 -0.12089261 0.012730126 0.1269058
000170 6e 2a db bd 64 41 b1 3a 19 84 39 3d cc dd ea bc
       -0.10701452 0.0013523516 0.045291994 -0.028670214
000180 ff b1 f0 bc cc 44 08 be f4 c3 d6 3c 8f 95 34 bd
       -0.02938175 -0.13307494 0.026216485 -0.044087943
000190 af 05 6c bd 78 fd d4 bd b6 69 68 bc 85 36 2d bc
       -0.057622608 -0.10399908 -0.01418536 -0.0105720805
0001a0 6f 38 8c bd bf c3 13 bd 21 8e ae bc 5e 0a b4 bd
       -0.06846701 -0.03607535 -0.021308007 -0.0879104
0001b0 6a 9e f2 3c 71 bc 09 bb d2 a6 04 3b 4f f4 b9 bd
       0.029616553 -0.002101686 0.0020241034 -0.09079801
0001c0 91 b4 95 3b d6 34 5e bd a4 c8 a3 3c 13 40 ad bc
       0.0045686443 -0.054249607 0.019993134 -0.021148717
0001d0 4e e9 59 bd c6 60 ff bd 3f 7e 38 bc 2d 33 ad bd
       -0.053201012 -0.1246963 -0.011260568 -0.08457027
0001e0 ec 3a 67 bd 40 dc 8c bd 3d 76 c7 3d 34 cd a5 bd
       -0.056452677 -0.06877947 0.09739349 -0.0809578
0001f0 32 5e 30 3d e2 10 d9 3c ad 26 8a bd d5 1c 30 3c
       0.04305858 0.026497308 -0.06745658 0.010749062
000200 39 50 8d bc 51 53 c7 bd b8 94 1c be d8 b3 b9 bd
       -0.017250167 -0.09732688 -0.15291107 -0.090675056
000210 3f 4d 02 3c 39 13 c8 bd af 66 9b 3c ac 70 cd 3c
       0.007952987 -0.097692914 0.018969862 0.02507814
000220 94 e7 b3 bd 39 8a 19 bc ad 3a 8d bd 7b f3 e6 39
       -0.087844044 -0.009371334 -0.06895957 0.00044050426
000230 fe 6d fe 3c 78 31 d5 3c 2a a9 a0 bd 10 0a 8f 3e
       0.031058308 0.026024565 -0.078447655 0.27937365
000240 3c 2f 07 3d 7a b0 68 3b 9f b6 c2 bd 30 fc d3 bc
       0.03300403 0.003550558 -0.095074885 -0.025877088
000250 b9 af ec bd 6d fb 0e 3c 3f 86 98 3c fc 9a b8 3c
       -0.11556954 0.008726937 0.018618701 0.02253484
000260 d3 2e 60 bd a8 7a 20 bd 09 95 3c bd ed 17 b3 3c
       -0.054732155 -0.039179474 -0.04604057 0.021861995
000270 e3 fe c3 3c a7 0a 9d bd b5 6b f2 3c 8d 68 4e bd
       0.02392525 -0.076680474 0.029592374 -0.050392676
000280 cb e2 fe bc 39 29 19 3c d5 28 1d 3d 27 d2 04 3d
       -0.031114003 0.009348207 0.03836902 0.03242698
000290 6f 88 2e 3d b3 da f2 bb 6b d9 d7 bd 8e 2d a1 3c
       0.042610582 -0.007411325 -0.10539516 0.019675042
0002a0 f9 d5 e9 bd cb 62 1c bd 82 43 7c bd 7c e8 29 bd
       -0.11417765 -0.038180154 -0.061587818 -0.04148148
0002b0 24 72 4d bd 58 80 93 bd 0e e3 ce bd 56 6d 92 bd
       -0.05015768 -0.07202214 -0.10101901 -0.071497604
0002c0 c1 11 22 bd ff 2d ce 3c d6 2f a3 bd 14 4f 3f 3d
       -0.039567713 0.025168417 -0.07968108 0.046706274
0002d0 79 87 a7 be f9 af 33 3e 77 f0 d1 bd 6a d6 09 bd
       -0.32720545 0.17547597 -0.10250943 -0.033651747
0002e0 72 f3 e8 bd 6c b5 dd bc 3a 7c cf bb 07 88 b3 3d
       -0.113745585 -0.027064048 -0.0063319476 0.087661795
0002f0 76 b9 d1 bd 61 00 0c bd c0 29 d0 bd 7c 49 51 bd
       -0.10240452 -0.03418005 -0.10164213 -0.05109547
000300 71 0a 3b bd 64 f5 98 3d d5 81 1a 3e 0a 18 b6 bd
       -0.045664255 0.074686795 0.1508859 -0.08891304
000310 af ee f6 bd 4a 2d 7c bd 08 2f 11 bd e5 a7 a4 be
       -0.12057244 -0.06156663 -0.035445243 -0.32159343
000320 97 20 bd bd 22 10 81 bd 65 b0 10 3d 6b 9e 38 bd
       -0.09234732 -0.06301905 0.035324473 -0.045072954
000330 00 eb 1a 3d 68 d7 40 be e5 52 e3 bc b7 7b 0e 3d
       0.03782177 -0.18832171 -0.027749488 0.034785952
000340 fc 79 08 3c 07 78 b6 bd a2 95 46 bd ab 71 98 bd
       0.008329865 -0.08909612 -0.048482545 -0.074435554
000350 b7 25 26 bd 64 ac 0d 3d 0a 95 8d bd ba fe cf 3c
       -0.04056331 0.034588233 -0.069131926 0.025390018
000360 4d a9 e5 bd 7c a3 41 bc 76 d5 43 3b 78 84 ff 3c
       -0.11213932 -0.011818763 0.0029881871 0.031191096
000370 d9 d6 85 bd 9c c1 71 3c 37 f0 d5 bd 79 24 b0 3c
       -0.065351196 0.014755633 -0.10446208 0.021501767
000380 eb 4a 7d bd bf 8c 59 3c 45 f7 eb 3c 84 d6 f7 bc
       -0.061839025 0.013278185 0.02880443 -0.030253656
000390 b2 73 9c bd 20 22 e3 bd 5c 32 97 bd 5b a2 cc bd
       -0.07639255 -0.11090493 -0.07382652 -0.09991904
0003a0 d6 03 92 bd 92 67 b7 bd a6 33 b1 3d d0 96 9e bd
       -0.07129638 -0.08955301 0.08652429 -0.07743609
0003b0 97 f5 55 bd 0c a0 8d bd aa fc 20 bd 29 00 d6 bb
       -0.052236166 -0.06915292 -0.03930346 -0.006530781
0003c0 68 59 bd bd a4 d4 21 bd 2c b8 ed bd 3e 25 65 bb
       -0.092455685 -0.03950943 -0.116073936 -0.0034964825
0003d0 dd 67 57 bb 77 92 78 bd 4e c3 7c bb eb e3 ae bd
       -0.0032868304 -0.060686555 -0.003856856 -0.08539566
0003e0 c9 5d ac bd 17 47 90 bd a0 01 4b 3d 29 61 96 3c
       -0.084163256 -0.07044809 0.049562097 0.018356876
0003f0 51 90 86 bd f4 e5 df 3b a5 bd d1 bc 31 54 cc 3c
       -0.06570495 0.0068328325 -0.025603125 0.02494249

layer3.bias f4 [4]
000000 d6 ab f5 39 98 89 f3 bc f9 67 c9 bd 18 16 f3 3d
       0.0004685807 -0.029728696 -0.09834284 0.118694484

exp_avg f4 [128, 39]
000000 92 ef 10 b7 75 b0 da b8 1c 66 10 36 bc c8 01 b7
       -8.638848e-06 -0.00010427918 2.1517108e-06 -7.735736e-06
000010 a4 8c c2 b8 e4 cb 96 35 58 55 27 39 d0 4e 1a 39
       -9.276837e-05 1.1235211e-06 0.00015958154 0.00014715944
000020 e1 cf 2f 39 8e 75 3d b7 9b e0 0b b9 17 f2 56 b6
       0.00016766741 -1.1292648e-05 -0.00013339745 -3.20294e-06
000030 2e 62 e8 38 63 76 86 38 4b 8d 13 39 b4 2f 3c b7
       0.000110809095 6.411669e-05 0.00014071648 -1.121678e-05
000040 f3 71 9b b8 f7 a2 08 b8 b2 19 2d b7 6f 0a 6f b8
       -7.412201e-05 -3.25767e-05 -1.0317586e-05 -5.6991757e-05
000050 8d ef 8f 38 10 96 d5 b8 33 be 91 b8 bb c4 07 b8
       6.863391e-05 -0.00010184583 -6.949566e-05 -3.2369728e-05
000060 ab 67 39 38 21 28 9e b7 f2 78 70 36 7c 20 90 38
       4.4203985e-05 -1.8853754e-05 3.5833186e-06 6.872506e-05
000070 64 af 90 38 20 7b 97 37 28 a9 66 37 47 66 0e 38
       6.899124e-05 1.8057937e-05 1.3748453e-05 3.395069e-05
000080 d0 1e f8 b6 b1 b4 73 38 e1 a9 7b 37 40 20 1e 36
       -7.394563e-06 5.8103997e-05 1.5000319e-05 2.3562607e-06
000090 79 cf 0b b6 2d 6b 17 b7 d9 77 b4 b7 37 29 1f 37
       -2.083338e-06 -9.025255e-06 -2.151348e-05 9.486735e-06
0000a0 a3 fa 09 b6 d5 11 02 36 b3 19 17 37 12 15 14 b6
       -2.056048e-06 1.938189e-06 9.006285e-06 -2.2065983e-06
0000b0 50 86 f6 35 42 3e 36 b7 30 e9 57 b7 d5 50 56 b7
       1.8367518e-06 -1.0862541e-05 -1.2869292e-05 -1.2774214e-05
0000c0 81 01 81 37 ca f3 ba b6 2f 66 52 36 f2 f9 a2 b6
       1.5378699e-05 -5.5716127e-06 3.1351917e-06 -4.8570737e-06
0000d0 d9 f7 46 b7 70 6d 41 b7 be 8e 85 37 c2 a9 78 b7
       -1.1859426e-05 -1.1529177e-05 1.5921305e-05 -1.4821477e-05
0000e0 ee 17 70 36 c5 83 15 37 37 1e 72 b5 73 7f be b6
       3.5776716e-06 8.911772e-06 -9.0195994e-07 -5.6772783e-06
0000f0 be fb 0b 37 89 5e 3d 37 4f 61 69 36 4f 08 af 36
       8.343659e-06 1.12872885e-05 3.4776347e-06 5.2163737e-06
000100 a7 de 60 36 84 13 16 37 5d b1 ab b6 2d a1 bc 36
       3.3508202e-06 8.945241e-06 -5.116845e-06 5.6216e-06
000110 01 b5 15 b7 91 c9 33 37 a6 b1 e9 36 9c 02 23 b5
       -8.923235e-06 1.0716162e-05 6.964622e-06 -6.072603e-07
000120 75 1d 66 b6 54 b8 19 36 b5 c2 6a b6 d4 c6 5a b6
       -3.4289817e-06 2.290607e-06 -3.4982052e-06 -3.2600265e-06
000130 35 2c 3a b6 6a 0a cd b6 c0 90 82 38 1d 75 98 37
       -2.7741892e-06 -6.1106884e-06 6.225845e-05 1.8174347e-05
000140 d7 1f cc 37 a4 b6 6f 38 be 83 85 37 ee 57 ca 37
       2.4333522e-05 5.7152138e-05 1.5916183e-05 2.4121222e-05
000150 f2 13 af b8 36 2a a5 b8 50 33 d9 b8 fa 12 b6 38
       -8.3483654e-05 -7.8756755e-05 -0.00010356924 8.681971e-05
000160 ef d0 a7 37 fa ff 44 38 7c 77 cb b7 59 c6 88 b7
       2.0005244e-05 4.696844e-05 -2.4255125e-05 -1.6304826e-05
000170 7d 2d c7 b8 6f 5c f9 37 55 2e 5b b7 ed ed af 38
       -9.497532e-05 2.9726156e-05 -1.3064205e-05 8.3889674e-05
000180 e3 e4 cb 38 c1 04 32 38 a9 58 85 b8 3f 79 2c b8
       9.722428e-05 4.2442935e-05 -6.3584484e-05 -4.1120915e-05
000190 76 56 47 37 51 d8 cf 38 6a 44 5d b8 f3 43 0b b8
       1.1881455e-05 9.910821e-05 -5.275422e-05 -3.3203465e-05
0001a0 e0 c8 e5 37 ed 4b 77 b8 d1 e8 57 37 26 73 51 b8
       2.7392467e-05 -5.89601e-05 1.2869205e-05 -4.9936723e-05
0001b0 7b 61 c5 36 63 34 67 37 32 9a aa 38 5c 8e ec b7
       5.8824057e-06 1.378087e-05 8.134953e-05 -2.8199684e-05
0001c0 f9 c9 4c 37 48 b1 97 38 f1 f3 1f 38 ef fb f4 b4
       1.2206373e-05 7.233262e-05 3.8135742e-05 -4.5631847e-07
0001d0 75 e9 0f b8 f2 c9 55 36 f9 c7 02 b7 57 7f 85 37
       -3.431128e-05 3.185702e-06 -7.795164e-06 1.5914133e-05
0001e0 3c d5 23 36 95 4f fa b5 27 a8 87 37 0a 67 a6 b8
       2.4413011e-06 -1.8649613e-06 1.6171556e-05 -7.934689e-05
0001f0 5a 42 72 b8 29 29 c6 b8 5a a6 90 35 66 f9 bd 37
       -5.775909e-05 -9.4490424e-05 1.0777251e-06 2.2646691e-05
000200 af a9 0d 38 83 8d e3 b7 dd 89 f4 37 ca fa ac b8
       3.377505e-05 -2.7126405e-05 2.9151264e-05 -8.248312e-05
000210 b3 a7 46 b7 0f fb b7 38 19 0e 9a 38 ce e7 be 38
       -1.1840765e-05 8.772883e-05 7.345918e-05 9.103083e-05
000220 79 7c 44 38 95 55 4b b8 67 5a 2a 38 e2 3f 85 b7
       4.6845966e-05 -4.8478676e-05 4.0615352e-05 -1.5884583e-05
000230 2c 7a a8 38 89 1b 16 b8 09 53 34 37 59 50 64 37
       8.0336205e-05 -3.578843e-05 1.0748169e-05 1.3608566e-05
000240 97 64 32 b8 35 af 8f 37 7f b7 5b b8 b2 3f 32 b7
       -4.253219e-05 1.7128516e-05 -5.2384563e-05 -1.0624457e-05
000250 4a 23 a9 36 e4 9c a1 38 53 2b 2f b7 cb 4c 2d 38
       5.0407007e-06 7.7063014e-05 -1.04409e-05 4.1317933e-05
000260 b9 c1 97 38 f2 aa 9f 37 ee 1f 80 b6 ab 20 34 b7
       7.236325e-05 1.903388e-05 -3.8184144e-06 -1.0736442e-05
000270 e9 88 ce b6 b7 ca 0b 38 07 6e e4 b7 d4 1a cd b6
       -6.155217e-06 3.3328975e-05 -2.7230953e-05 -6.1125993e-06
000280 c5 2b 01 38 51 08 b5 b7 c8 a5 32 b5 bb 33 34 b2
       3.079676e-05 -2.1580754e-05 -6.655141e-07 -1.0489141e-08
000290 74 91 94 37 9c fa 46 b7 c3 13 53 38 9d c3 86 b7
       1.7710707e-05 -1.1860069e-05 5.0324725e-05 -1.6065134e-05
0002a0 53 7c 4d b7 12 54 a0 b6 34 f6 39 38 e9 3b a1 b7
       -1.2247899e-05 -4.7781587e-06 4.433673e-05 -1.9220593e-05
0002b0 13 cc 65 38 50 f4 4b 38 14 ae 32 b8 10 a9 08 b7
       5.4787914e-05 4.8626505e-05 -4.260063e-05 -8.145595e-06
0002c0 86 e3 c0 37 58 a4 80 35 af 78 58 b8 3b fa 88 b8
       2.2994132e-05 9.584573e-07 -5.161081e-05 -6.5315944e-05
0002d0 59 df 1a b8 13 b8 8f 37 6f a9 7e b7 a8 7e c4 37
       -3.692447e-05 1.7132645e-05 -1.5179029e-05 2.3424e-05
0002e0 da 8b 58 b7 98 59 9d b6 07 7a 59 b6 1e e1 10 b8
       -1.2907165e-05 -4.6893947e-06 -3.240655e-06 -3.4541932e-05
0002f0 eb 22 f3 34 96 93 e7 37 d5 79 50 37 48 b8 6c 37
       4.5287683e-07 2.7606071e-05 1.2426132e-05 1.41096025e-05
000300 26 63 c6 36 e5 38 83 36 e4 99 a5 b7 28 7d d2 b6
       5.9124022e-06 3.9107276e-06 -1.9741194e-05 -6.273058e-06
000310 a2 29 68 38 d2 8c df 36 6d f7 ce b6 e4 44 44 38
       5.5351884e-05 6.6623115e-06 -6.1680826e-06 4.67942e-05
000320 1e 09 c4 36 45 f3 40 38 9a 23 c1 37 05 44 37 38
       5.8423166e-06 4.600293e-05 2.3023971e-05 4.3693948e-05
000330 a2 bb 47 b7 d5 67 45 38 17 2d ee 36 84 7d 1a 38
       -1.1905011e-05 4.706516e-05 7.098202e-06 3.6833357e-05
000340 d0 e5 0f b8 b3 16 ee 37 27 72 ab b7 53 1f 8c b8
       -3.4307886e-05 2.8382381e-05 -2.0437945e-05 -6.681555e-05
000350 53 a1 62 b7 2e 40 55 37 16 55 28 b8 59 b4 4a b7
       -1.3508211e-05 1.2710732e-05 -4.0133564e-05 -1.2082129e-05
000360 95 34 09 b7 32 65 80 37 34 6b 92 b8 b5 a4 8b 37
       -8.178079e-06 1.5305912e-05 -6.981791e-05 1.6646789e-05
000370 99 bc 09 b7 7a 19 29 b7 79 be 83 37 f6 95 a8 37
       -8.209748e-06 -1.0079117e-05 1.5705113e-05 2.0096992e-05
000380 3a 0b 1f 36 6b e4 7a 37 a1 9b 95 b6 70 4c c6 b7
       2.369938e-06 1.4954344e-05 -4.4586636e-06 -2.3639033e-05
000390 b2 26 4a b7 f8 0a 05 b7 0c 58 a4 36 80 03 90 37
       -1.2049148e-05 -7.929972e-06 4.897831e-06 1.7167768e-05
0003a0 63 9f b0 b7 0d 06 15 b7 04 9d a8 37 a3 1f 87 37
       -2.1055055e-05 -8.882501e-06 2.0100277e-05 1.6107986e-05
0003b0 57 ce 57 b7 c3 80 9f 37 d8 8b 65 37 5f aa 4b b7
       -1.2863041e-05 1.9014236e-05 1.3682024e-05 -1.21394105e-05
0003c0 10 c1 1f b8 a5 b6 f7 b7 00 d5 1f b8 a6 7f 07 38
       -3.8088358e-05 -2.9529745e-05 -3.8106926e-05 3.230539e-05
0003d0 91 e4 73 37 fb 3c a8 b7 fc b3 d7 b7 c7 bb e1 35
       1.4537146e-05 -2.0055557e-05 -2.5713809e-05 1.6818457e-06
0003e0 2b fb d0 b7 1d ec 0d 38 07 31 c3 b7 10 05 3f b7
       -2.4912491e-05 3.3836917e-05 -2.3268642e-05 -1.1385666e-05
0003f0 c3 1c 8f 36 b8 d4 48 38 18 f9 41 37 1f af 03 35
       4.2650804e-06 4.7881826e-05 1.1561693e-05 4.905614e-07

exp_avg_sq f4 [128, 39]
000000 c8 10 5f 33 f4 a6 69 34 e9 71 36 33 5a ab 42 33
       5.1936496e-08 2.1760553e-07 4.2478778e-08 4.5324988e-08
000010 17 7c 21 34 26 e7 14 33 05 d4 ea 34 b0 39 95 34
       1.5039437e-07 3.4669164e-08 4.374016e-07 2.7795386e-07
000020 77 cd e5 34 87 39 10 34 41 59 70 34 c8 b2 c4 33
       4.280407e-07 1.3431973e-07 2.2384212e-07 9.159481e-08
000030 f1 c4 a0 34 68 30 b4 33 1b 9a 94 34 cd 47 33 34
       2.9945616e-07 8.390708e-08 2.7679275e-07 1.6696795e-07
000040 ec 80 06 34 59 db 24 34 6e ee 00 34 d9 0f b8 33
       1.2526624e-07 1.5353488e-07 1.2007669e-07 8.5710504e-08
000050 ca 13 d3 33 5d 58 7c 33 96 1e 8b 33 69 d4 07 34
       9.829053e-08 5.8753688e-08 6.4782554e-08 1.2650129e-07
000060 0e b5 a9 33 74 45 8a 33 07 54 fd 33 dc c5 be 32
       7.9026094e-08 6.438759e-08 1.1796515e-07 2.2208887e-08
000070 23 d2 75 33 24 eb b4 33 c2 5f 5e 33 ad fe 21 33
       5.7234626e-08 8.424675e-08 5.1775494e-08 3.771736e-08
000080 7d fd 9e 33 99 f3 96 32 d7 0d 1e 33 f9 92 10 33
       7.4035576e-08 1.7573074e-08 3.679983e-08 3.3661284e-08
000090 9c 22 bf 32 68 2d 86 32 dc fb 08 33 d4 2d 22 32
       2.2251065e-08 1.5620301e-08 3.1894032e-08 9.440061e-09
0000a0 85 e7 b4 32 17 9e 1b 32 8a ca c3 31 ed 0b 7d 32
       2.106004e-08 9.058133e-09 5.698273e-09 1.472925e-08
0000b0 6b 6f a9 31 53 79 37 33 7e dc 08 33 36 30 36 33
       4.931214e-09 4.271835e-08 3.1865504e-08 4.2419025e-08
0000c0 fe 98 2e 32 b8 84 af 32 67 87 d7 31 12 90 f6 32
       1.0162919e-08 2.0433035e-08 6.272717e-09 2.8703685e-08
0000d0 7c d5 1d 32 00 2a f8 32 06 d5 7c 32 3b 77 94 31
       9.1871435e-09 2.88901e-08 1.47167665e-08 4.320922e-09
0000e0 b5 59 09 32 5d 73 62 32 0a ae 25 32 21 81 21 32
       7.994847e-09 1.3181162e-08 9.643836e-09 9.400794e-09
0000f0 4e 4c a3 31 93 3a 80 31 61 e0 0c 32 2a 8c 68 31
       4.752599e-09 3.7319494e-09 8.20009e-09 3.3840117e-09
000100 b8 94 aa 31 28 79 0f 31 af 39 03 31 26 b8 f2 30
       4.9645585e-09 2.0878108e-09 1.9095798e-09 1.7660156e-09
000110 33 55 16 31 7b b4 16 31 9e dc 85 30 0e d1 45 31
       2.1876303e-09 2.1930464e-09 9.739727e-10 2.8786107e-09
000120 6e 20 e2 2f 6d 2b b9 2f b1 1d f2 2f a5 a9 9a 30
       4.1132203e-10 3.368216e-10 4.404064e-10 1.1253191e-09
000130 8a e2 8a 2f 0b 52 7f 30 b9 c9 9e 32 02 2c f0 32
       2.526302e-10 9.288505e-10 1.8485354e-08 2.795969e-08
000140 b9 d0 ca 31 ce d2 7f 32 31 74 91 32 73 3d a6 31
       5.9027028e-09 1.4890885e-08 1.693306e-08 4.838222e-09
000150 e2 06 3c 33 b1 47 0b 33 e3 6a 7f 33 e8 3c 0e 33
       4.377842e-08 3.2428662e-08 5.9469027e-08 3.3117345e-08
000160 11 2d 91 32 61 31 7a 32 ac 4c 72 32 db 56 37 32
       1.6900715e-08 1.4563143e-08 1.4103687e-08 1.0671751e-08
000170 b1 68 54 33 53 a9 17 32 fa 43 62 32 49 57 21 33
       4.9455313e-08 8.827857e-09 1.31703874e-08 3.756512e-08
000180 d9 f7 f0 32 9b d0 10 32 e7 8d cf 32 ff 7b 8f 32
       2.8052385e-08 8.429335e-09 2.4162501e-08 1.6703778e-08
000190 9b fb a4 31 7e e7 4c 33 48 b7 1f 32 11 da 12 32
       4.8016324e-09 4.7707992e-08 9.296691e-09 8.547901e-09
0001a0 db 1f 2c 32 4c cf 12 32 4f 22 a4 31 f3 a6 8c 32
       1.0018961e-08 8.545452e-09 4.7769286e-09 1.6374065e-08
0001b0 6a c5 f7 31 ae 73 9a 31 04 92 ea 32 73 d0 6d 31
       7.2110895e-09 4.495141e-09 2.7307586e-08 3.4606529e-09
0001c0 5f c8 4b 31 b3 39 10 32 3b e5 33 31 b8 e8 f9 30
       2.9654286e-09 8.3950225e-09 2.617823e-09 1.8183277e-09
0001d0 42 55 26 32 74 5b 50 33 75 51 08 34 ac 82 32 33
       9.681857e-09 4.851195e-08 1.2695621e-07 4.15627e-08
0001e0 76 2e 38 33 38 7c c0 33 a1 89 1f 33 3f f6 a1 34
       4.2883094e-08 8.963292e-08 3.7145245e-08 3.0167755e-07
0001f0 f7 63 49 34 fd 85 b4 34 29 36 00 34 a1 6c f8 33
       1.8755951e-07 3.3625102e-07 1.1940632e-07 1.15681594e-07
000200 e4 40 05 34 b5 c5 1f 34 2b 3a 10 33 9c 73 83 34
       1.2410197e-07 1.4879954e-07 3.3580516e-08 2.4484768e-07
000210 24 86 e0 33 85 60 50 33 2c 6a a8 34 e0 53 2f 33
       1.0455213e-07 4.8516558e-08 3.136969e-07 4.0821647e-08
000220 6b 25 77 33 c8 07 60 33 7a 07 b1 33 d7 f2 0f 33
       5.75432e-08 5.216114e-08 8.243565e-08 3.3515644e-08
000230 fb 1c 1b 34 ab 5e 43 33 b8 d1 e9 32 58 3b 49 34
       1.4446043e-07 4.5488076e-08 2.7220139e-08 1.8741173e-07
000240 00 a7 92 32 e9 94 01 33 1b 06 35 34 27 cb 37 33
       1.707258e-08 3.0170586e-08 1.685916e-07 4.2792774e-08
000250 24 42 a8 32 ce 7d 98 33 4c a0 37 32 e1 3b b8 32
       1.9587851e-08 7.100935e-08 1.0688449e-08 2.1447649e-08
000260 96 f7 47 33 3d 5f 4f 32 3f ba 13 32 8d c5 3b 33
       4.6558476e-08 1.20706405e-08 8.598874e-09 4.3719e-08
000270 c5 f3 15 32 60 cc 3e 33 37 6b d0 33 db f8 f5 31
       8.728368e-09 4.44237e-08 9.705257e-08 7.15873e-09
000280 ac 78 0d 33 bf 2f 9b 33 11 f5 22 34 3e f9 c8 33
       3.293887e-08 7.226435e-08 1.517658e-07 9.3585626e-08
000290 6b e7 b5 33 4d ce b2 32 ce ec 78 33 f7 26 0b 34
       8.470564e-08 2.0815742e-08 5.7957372e-08 1.2959559e-07
0002a0 40 9b 09 34 ed ab 95 32 03 d1 4f 32 52 39 25 33
       1.2815599e-07 1.7424066e-08 1.209651e-08 3.846919e-08
0002b0 26 d3 74 32 de 9c 7a 32 22 3b b8 33 d8 82 8f 33
       1.4250679e-08 1.4587583e-08 8.578924e-08 6.682757e-08
0002c0 7f 76 c2 33 b5 19 b4 32 fd ab a0 32 be 29 86 32
       9.055383e-08 2.0966448e-08 1.8704663e-08 1.5618635e-08
0002d0 5c fc aa 32 9c 6d 04 33 f6 24 34 33 fc 80 f1 31
       1.9905364e-08 3.0833334e-08 4.194313e-08 7.028687e-09
0002e0 26 4c 02 32 0d c0 86 32 0b 6f 6a 32 30 6d 5a 32
       7.58431e-09 1.5686988e-08 1.3645841e-08 1.2714096e-08
0002f0 8b 9c 3b 32 3d 70 b0 31 49 fc f8 31 b4 0f 32 32
       1.0920426e-08 5.135034e-09 7.2464315e-09 1.0364534e-08
000300 fb 40 e2 31 46 31 f7 31 96 79 06 32 97 fc 23 32
       6.584853e-09 7.194248e-09 7.827472e-09 9.545281e-09
000310 b1 6f 0a 34 6b 91 0c 33 b7 29 13 32 9f 3f cc 33
       1.2892885e-07 3.2728547e-08 8.566011e-09 9.511063e-08
000320 9a b7 ec 32 b8 c6 aa 34 d9 c9 4d 34 19 04 9a 34
       2.7557508e-08 3.1809554e-07 1.9165545e-07 2.8687717e-07
000330 9c 46 f2 32 76 70 25 34 cd b7 96 33 69 20 84 34
       2.8204617e-08 1.5407736e-07 7.0183525e-08 2.4610497e-07
000340 3c 45 21 33 e7 d9 32 34 5a 6f 6c 33 5f 4f 10 33
       3.7548702e-08 1.6656814e-07 5.5049306e-08 3.35998e-08
000350 f5 c7 6c 33 06 42 c3 33 13 d4 c9 33 8b af 75 33
       5.512989e-08 9.092405e-08 9.398368e-08 5.7203163e-08
000360 5a b4 f3 32 74 c8 50 33 40 cf 89 33 29 84 c2 32
       2.8370938e-08 4.8611085e-08 6.417258e-08 2.2644672e-08
000370 fd 3b 17 33 ab 6e 25 33 9b 1d 57 32 57 1f 8e 32
       3.5211986e-08 3.8517708e-08 1.2521379e-08 1.6545227e-08
000380 20 52 45 33 67 aa 84 32 87 42 77 32 36 49 95 32
       4.594233e-08 1.5444312e-08 1.4392419e-08 1.7379175e-08
000390 4a 5f ac 31 66 3d c5 31 f8 d7 2a 32 99 53 8f 31
       5.016692e-09 5.740435e-09 9.944408e-09 4.1713517e-09
0003a0 27 48 db 31 60 46 12 32 29 21 f4 31 33 d9 be 32
       6.3819416e-09 8.51432e-09 7.1051045e-09 2.2217682e-08
0003b0 02 4d 91 32 3c 26 bf 31 6c 9f 7f 32 c8 19 64 32
       1.691524e-08 5.5631784e-09 1.4879202e-08 1.3277209e-08
0003c0 7e c3 3f 33 24 28 e5 32 f1 0b 16 33 a1 95 79 32
       4.4648452e-08 2.6677363e-08 3.4935457e-08 1.4527729e-08
0003d0 cb 46 bf 32 c2 59 f5 32 9e a7 02 33 24 9d 91 31
       2.226752e-08 2.8562571e-08 3.042043e-08 4.2379202e-09
0003e0 2b 17 48 32 08 0e bd 32 40 6d ff 31 96 fe 3f 32
       1.16468e-08 2.2008876e-08 7.433897e-09 1.1175549e-08
0003f0 c1 18 65 32 96 32 b9 32 f2 85 a5 32 e8 83 12 32
       1.3335183e-08 2.1559838e-08 1.926944e-08 8.5283105e-09

exp_avg f4 [128]
000000 1e 49 3a 39 0c a0 5c b7 0b 5e df b8 f1 34 cf b8
       0.0001776558 -1.3150286e-05 -0.000106509855 -9.88039e-05
000010 27 2b 74 36 7a f1 4e 38 56 ca 33 b8 85 03 d3 38
       3.6383951e-06 4.933912e-05 -4.2865366e-05 0.000100619196
000020 db d2 aa b7 bf 5e d6 b6 24 df 32 b7 51 49 70 38
       -2.0363766e-05 -6.388727e-06 -1.0661581e-05 5.728874e-05
000030 e8 73 9b 38 cd eb 69 b7 5a ed 72 38 51 08 a7 33
       7.412565e-05 -1.3942784e-05 5.7918347e-05 7.778056e-08
000040 e8 8b a0 38 e9 c5 c7 36 c3 fd 30 39 6e 1f 89 b6
       7.655454e-05 5.953702e-06 0.00016879202 -4.086577e-06
000050 a6 3e 20 38 5a 59 8c b7 85 fd 94 b7 48 16 52 37
       3.820532e-05 -1.6730908e-05 -1.7761029e-05 1.2522163e-05
000060 38 1c 62 b8 8e a4 96 38 56 5a 08 38 eb e5 2d 37
       -5.390888e-05 7.183208e-05 3.250906e-05 1.03651355e-05
000070 8b bb 9f b8 c4 f1 9b b8 da a5 85 b8 92 0c e4 b7
       -7.6166434e-05 -7.436008e-05 -6.3728265e-05 -2.7185572e-05
000080 36 2d 34 37 2e 75 99 b6 54 94 17 37 64 e7 81 b8
       1.0739363e-05 -4.573397e-06 9.034837e-06 -6.194299e-05
000090 3b 79 bf 36 15 6d 2a b7 c0 46 10 38 68 f4 86 b3
       5.7063567e-06 -1.0158187e-05 3.4398166e-05 -6.2843185e-08
0000a0 1c 4f a4 36 6a 3a 89 b7 d6 fc 61 36 ff 5d 22 38
       4.8967904e-06 -1.6358874e-05 3.3674783e-06 3.871135e-05
0000b0 d6 0c bf 38 08 9e 59 38 f1 bd 98 37 bb 10 f4 38
       9.1099806e-05 5.188401e-05 1.820826e-05 0.00011637943
0000c0 f3 82 0b b9 f9 2a a9 37 71 1b 55 b8 04 d3 84 b8
       -0.00013304855 2.016638e-05 -5.0808714e-05 -6.333555e-05
0000d0 38 25 7c b8 c9 2b 8d 37 db 98 85 b7 d7 94 2d 38
       -6.0116145e-05 1.6828899e-05 -1.5926014e-05 4.1385032e-05
0000e0 2f 79 f3 38 d5 26 b4 b7 4b 32 89 38 11 74 4c 39
       0.00011609715 -2.1475755e-05 6.542037e-05 0.00019498194
0000f0 83 89 8e b7 87 64 49 37 d9 f3 f0 b7 f5 1f 80 b7
       -1.6991753e-05 1.2003939e-05 -2.872378e-05 -1.527367e-05
000100 b4 02 11 b9 5a 72 60 38 d1 f0 1a 38 c1 36 f5 37
       -0.00013829285 5.351226e-05 3.694074e-05 2.9231773e-05
000110 51 6d 5c 37 ec 40 62 38 10 5b 20 37 2e d7 80 38
       1.3138474e-05 5.3943062e-05 9.557945e-06 6.143596e-05
000120 b7 69 9f b6 27 f0 26 39 f1 81 17 37 96 f3 9a 35
       -4.750876e-06 0.00015920457 9.030556e-06 1.1544787e-06
000130 20 69 68 b7 51 c3 f1 b6 80 17 24 38 15 bd 6d 37
       -1.3852754e-05 -7.2050975e-06 3.9122533e-05 1.4170325e-05
000140 65 cc c3 b7 0d f1 ab 38 e7 47 de 37 7d 8c 42 b7
       -2.334099e-05 8.1988146e-05 2.6497944e-05 -1.1596011e-05
000150 c1 2c 84 b7 a3 6e 07 36 c8 f4 2c b8 ec 8a 22 37
       -1.5756466e-05 2.0180967e-06 -4.1235966e-05 9.688298e-06
000160 52 08 a0 37 cc f0 a7 b7 c8 d5 48 37 98 82 2b 38
       1.907736e-05 -2.0020081e-05 1.1970704e-05 4.0891202e-05
000170 d0 4f 06 35 d7 86 2d b8 3d d3 22 38 60 d2 b6 38
       5.003503e-07 -4.1371994e-05 3.882054e-05 8.717622e-05
000180 f2 e9 14 b9 cd c7 91 38 2f 71 db 36 c0 1b 24 b7
       -0.00014201531 6.9513546e-05 6.539885e-06 -9.781623e-06
000190 a5 42 2e 38 c4 63 d1 b7 9e 6c f1 b6 55 ee 32 38
       4.15469e-05 -2.4961199e-05 -7.1950044e-06 4.266047e-05
0001a0 ec a7 8b 37 56 76 11 38 f9 45 8b b6 2d 06 81 38
       1.6648286e-05 3.4680903e-05 -4.1506687e-06 6.15235e-05
0001b0 0a 21 99 b8 0d e2 0d b8 ba 3f 49 38 7d 74 e4 b6
       -7.3017625e-05 -3.3827546e-05 4.7981484e-05 -6.8084905e-06
0001c0 1f dd 28 b8 1d 39 5e 38 9b 66 57 37 41 aa 04 39
       -4.0260256e-05 5.2982115e-05 1.2838888e-05 0.00012651925
0001d0 0f 46 6b 38 1b b6 05 38 a9 5a e3 b6 3a 7f 06 38
       5.6093613e-05 3.187927e-05 -6.7756814e-06 3.206658e-05
0001e0 19 81 8d b6 6c 7b e8 37 0c f6 55 b7 dd 29 99 37
       -4.2171564e-06 2.7714028e-05 -1.2753077e-05 1.8258515e-05
0001f0 88 2f 88 b8 9a 0c 13 b8 d3 6d 8c b7 7b f8 e6 37
       -6.493839e-05 -3.5059267e-05 -1.6740441e-05 2.7533844e-05
